data.pth (torch, 4991 bytes, 6 tensors)

l1.weight f4 [8, 54]
000000 8f 65 c6 3e 9e af a7 3d 8e c9 fd be 50 65 bc 3e
       0.38749358 0.08187793 -0.49567837 0.36796045
000010 05 ea b0 3e a3 4f c0 be c9 86 48 bd f4 5a 5a be
       0.34553543 -0.37560758 -0.048956666 -0.21323758
000020 f2 7f dc be 7d 0a cb be 96 9c f7 3e e4 ef 8b be
       -0.43066365 -0.3965644 0.48361653 -0.2733146
000030 df ec 04 3f d2 6d 91 be 81 cb 3e be 04 14 c8 bd
       0.51923937 -0.284041 -0.18632318 -0.09769443
000040 99 7e 04 3f d5 40 c2 be e4 ca 34 3f 22 6e 33 3f
       0.5175567 -0.37940088 0.70622087 0.70089924
000050 be 9e bf 3e 66 ec 2f 3f 9a fc 4a 3f a1 2d 93 3e
       0.37425798 0.6872009 0.7929169 0.2874575
000060 b1 3f 8f be 33 df 02 3f 3f 94 2c 3f af 01 1d bf
       -0.2797828 0.51121825 0.67413706 -0.61330694
000070 93 ef ca 3e 92 c3 0c bf c8 89 96 be 27 ed 39 be
       0.39635906 -0.54985917 -0.29401994 -0.18156873
000080 f5 07 cd 3e 88 85 29 bf 1a 6e 5e be 34 58 b5 be
       0.40045133 -0.6621938 -0.21721688 -0.35418856
000090 e2 48 bf 3e 1f 40 e9 be c0 21 43 3d 37 e9 01 bd
       0.37360293 -0.45556733 0.04763961 -0.03171655
0000a0 f2 59 c7 be 6d 90 2c 3f b1 f1 5b be b7 4d 49 be
       -0.3893581 0.67407876 -0.21478917 -0.19658552
0000b0 62 87 bb be c0 91 21 be 3d a2 21 3f 3b 2f b4 3e
       -0.36626726 -0.15778255 0.6313818 0.35192284
0000c0 52 22 40 3f a5 c3 81 3f 32 a8 24 be e5 74 22 3f
       0.7505237 1.0137831 -0.16079786 0.63459617
0000d0 76 b1 84 bd cc ee 16 3f 1a 40 90 3b 31 06 96 bd
       -0.064791605 0.58958125 0.0044021728 -0.073254
0000e0 1c bd 46 3d 5e b0 e5 3d 72 e4 e3 bd b0 67 44 bd
       0.048520193 0.1121528 -0.11127557 -0.047950447
0000f0 50 b6 14 bc 24 c1 07 3e ac d8 a2 3d c2 b8 c9 3d
       -0.00907667 0.13257271 0.07951483 0.09849693
000100 47 e2 93 bd 00 65 da bc d6 3a a6 bd 69 e4 b5 bd
       -0.07220893 -0.026659489 -0.08116691 -0.088814564
000110 d7 0f 6a 3d a9 ec da bd 40 96 9a 3d 2e de 93 3d
       0.057144012 -0.106896706 0.07548189 0.07220112
000120 0c 7c 7b 3d 96 bb 62 bd b3 49 a4 3d 90 66 1e 3c
       0.061397597 -0.055354677 0.080218695 0.0096680075
000130 6c 01 8a 3d da 90 37 bd 49 71 d9 bd 55 d7 96 bd
       0.067385525 -0.044815876 -0.106173106 -0.0736529
000140 d8 ba fc bd ce a5 a8 bd 65 fe 04 be 20 94 ee bd
       -0.12340325 -0.0823475 -0.12987669 -0.11649346
000150 40 5b c6 3c 08 7a f9 3d 90 a4 4d 3d e0 16 07 3c
       0.024213433 0.12181479 0.050205767 0.0082452
000160 0d b1 c8 3d c0 4d 30 3d 88 eb bc 3c 7c 1e d6 3d
       0.09799395 0.0430429 0.023061529 0.10455033
000170 7d df fa bd 84 92 aa bc 0c a0 df bd b0 07 d0 3d
       -0.12249658 -0.020821817 -0.109191984 0.10157716
000180 10 05 1d 3d 08 e5 a6 bd 16 79 e4 bd 30 50 fe 3b
       0.038334906 -0.08149153 -0.11155908 0.007761024
000190 a8 91 d5 3d 88 35 8f b9 a0 10 e8 3c 90 10 73 3d
       0.10428172 -0.0002731497 0.02832824 0.059341967
0001a0 34 da ab bc f1 52 b4 bd 5b 93 87 bd ad 0d db bd
       -0.02097807 -0.08804882 -0.06619903 -0.10695968
0001b0 3c 29 12 3f eb b9 17 3f 52 28 13 3e 24 31 58 bc
       0.5709417 0.59268063 0.1437085 -0.01319531
0001c0 9e cb 57 3e 88 6a d2 be bb ec b0 3e 04 ae a1 3e
       0.21073768 -0.41096902 0.3455561 0.31578076
0001d0 94 87 8b bb 48 cf 98 3e 95 1c 89 3d 34 11 6c be
       -0.0042581055 0.29845643 0.06694905 -0.23053437
0001e0 25 16 95 3e c0 28 3b be 02 2e 12 3f 3c be 72 be
       0.29118457 -0.18277264 0.5710145 -0.23705381
0001f0 f6 a3 05 3e 7b 98 d3 be 7d 24 2e 3e 62 ab b2 3d
       0.13050827 -0.4132727 0.17006107 0.08724095
000200 75 be eb 3e a3 99 29 3e be 95 93 3d 1a 2e 09 be
       0.46043745 0.16562514 0.072062954 -0.13396493
000210 74 46 2b 3d 5d 7c 62 bd a9 db 6b 3e c6 4f 07 3f
       0.041815236 -0.055294383 0.23033012 0.528561
000220 b7 75 17 3e 33 32 d2 3e 4a 83 a9 be 11 ef a3 bd
       0.14790998 0.41053924 -0.33107978 -0.08004583
000230 a3 2e e5 3e d9 04 1f 3e 67 1a 2b 3f 67 1f 88 be
       0.44762143 0.15529193 0.6683716 -0.26586458
000240 f8 da 52 3e b1 80 ee 3d 27 be af 3e 9f 92 8b 3e
       0.20591342 0.1164564 0.34324762 0.272603
000250 0e a1 ca be 54 13 87 3d e6 f7 23 be de a6 0d 3f
       -0.39576 0.065954834 -0.16012534 0.55332744
000260 6c 8b a0 bd 67 10 52 3f 12 e4 58 3f 9d ce c4 3e
       -0.078390926 0.8205628 0.8472301 0.38438883
000270 3e 58 56 3d af a8 0d 3e 5c 20 71 be 08 03 b2 bd
       0.052330248 0.13833879 -0.235475 -0.086919844
000280 93 33 cb 3e 2e 24 db 3e 4c 3f e3 3e 08 46 16 3f
       0.39687786 0.4280104 0.4438423 0.5870061
000290 e5 b2 f9 3e 9c 2a 6d 3b cf da 8a 3e 1e e9 28 be
       0.48769298 0.0036188727 0.27120063 -0.16495177
0002a0 a4 11 b5 3e 59 cc b8 3e f4 7e b6 3e d4 62 b6 3e
       0.3536502 0.36093405 0.35643733 0.35622275
0002b0 93 e5 c7 bd 7f e4 02 bd 7c 31 4f 3e 7f a9 13 be
       -0.09760585 -0.031956192 0.2023372 -0.14420126
0002c0 a3 77 c9 3e 2e 4d 40 be ba 9c 66 be 94 0d 31 be
       0.39349088 -0.18779442 -0.22520724 -0.17290336
0002d0 17 31 97 be ba ea a4 be 00 29 b2 3e 6a ed a4 be
       -0.2952964 -0.32210332 0.34796906 -0.32212383
0002e0 bf f4 a4 be ee 1e 1a bf 9e e4 b2 3e 5c 7f 15 be
       -0.32217976 -0.60203445 0.34940046 -0.14599365
0002f0 2c a8 a3 be 47 87 0a 3f 3c bb ac 3d 4e 53 fe 3e
       -0.31964242 0.54112667 0.084341496 0.4967293
000300 7c a5 bc be 93 67 34 3d c8 eb b4 3e 35 ab cc 3e
       -0.36845005 0.04404409 0.35336137 0.3997437
000310 83 7e 0d 3f cc 59 3d be 76 e2 06 bd 05 4f df 3e
       0.55271167 -0.18491286 -0.032930814 0.43614975
000320 be d5 e1 3e 00 b2 8b 3e 4d f4 60 be 99 d9 be be
       0.44108385 0.2728424 -0.21968193 -0.3727539
000330 01 10 f5 bd 06 8b 04 3f 8e 67 e2 3e b9 f2 0a 3f
       -0.11965943 0.5177463 0.4421963 0.54276615
000340 0b 8c 54 3f bb 9f 0d 3f 60 56 38 be de 65 cc be
       0.8302619 0.55321854 -0.180017 -0.39921468
000350 0c bc 2c be b4 75 23 be aa 2a 8a 3e dd 6a ba 3e
       -0.16868609 -0.15962869 0.26985675 0.36409655
000360 e2 27 a6 be 2d 8b 18 3f 13 d0 4c 3e 2f f2 b2 be
       -0.32452303 0.59587365 0.20001249 -0.34950396
000370 75 c6 cf 3d 96 78 9b 3f c1 37 3c 3e f1 2d b0 3e
       0.101452745 1.2146175 0.18380643 0.3441005
000380 cf 5d 02 3f 07 5d a7 3e 3c d3 88 be 75 02 d2 be
       0.5092439 0.32688162 -0.2672366 -0.410175
000390 90 82 17 3f 0a 4b 3c be 21 9c 02 3f 2c 56 85 be
       0.591836 -0.18388 0.51019484 -0.26042306
0003a0 f2 2b 18 be 5b d1 88 3f a9 ae 80 3e 11 92 fd be
       -0.14860514 1.068889 0.25133255 -0.49525502
0003b0 6b 3c 31 be 1b ac f1 be f3 d9 fc be ac 61 fb be
       -0.17308204 -0.4720162 -0.49385032 -0.49097955
0003c0 f1 1e bb 3d 5d 8b 44 be 4d b5 08 3f c6 31 1d 3f
       0.09136761 -0.19193788 0.53401643 0.61404073
0003d0 35 f9 e2 3e e1 1e 22 3f 7a 36 64 3f 5e f5 31 be
       0.44330755 0.6332837 0.89145625 -0.17378756
0003e0 c0 d3 8a be 2e 33 cf 3e e0 47 1c 3f 5c 76 a3 be
       -0.27114677 0.40468735 0.6104717 -0.3192624
0003f0 f9 6a e6 3e 82 8b ab 3e 46 b2 9e 3e c8 a7 b7 3e
       0.4500349 0.33504874 0.30995387 0.35870194

l1.bias f4 [8]
000000 eb 07 42 3f bb c0 ed bd 3e 96 22 3f 1e e9 a4 3e
       0.7579333 -0.11609026 0.635105 0.32209104
000010 68 96 30 3f ae 2f 0e 3f b3 03 3e 3f 8a 05 32 be
       0.689795 0.55541503 0.74224395 -0.17384925

l2.weight f4 [8, 8]
000000 09 d9 35 3e 11 39 40 be fa 49 53 3f 72 79 5b 3f
       0.17758574 -0.18771769 0.82534754 0.85732186
000010 27 ce ba 3f fb 09 43 bf 6c b4 27 bf b3 f4 09 bc
       1.4594163 -0.76187104 -0.65509677 -0.008420157
000020 ef 87 ba 3f d6 3f 23 be b3 5a 4a 3f d2 a9 35 bf
       1.4572734 -0.1594232 0.79044646 -0.7096225
000030 4e 53 f2 be e9 ff 7d bd a0 6b 0b be 48 da 62 3d
       -0.4732918 -0.062011633 -0.13615274 0.05538395
000040 9e 14 2e be f4 c6 e0 bd c4 58 84 3f 93 dc b9 3f
       -0.17000052 -0.10975447 1.0339589 1.4520439
000050 2f 06 86 be c0 b2 13 bf 86 22 d4 3d a9 e3 88 3e
       -0.26176593 -0.57694626 0.10358147 0.2673619
000060 77 60 29 3e 9f 4f e5 bd e7 61 cf bc 5b ad 57 3f
       0.16540705 -0.11196827 -0.025315238 0.84248894
000070 b5 2c 07 bf 75 e2 a0 3f 99 db ac 3f c6 b3 67 3d
       -0.5280259 1.2569109 1.3504516 0.05656793
000080 3d 00 93 3e b9 eb 91 3e 77 4f 8a be 39 48 5d bd
       0.2871112 0.28500155 -0.27013752 -0.054023955
000090 c1 59 e2 3d fa 20 7b 3f df 54 8f 3f e5 d0 09 be
       0.110522754 0.98097193 1.1197776 -0.13458593
0000a0 3a dc a9 3f 9a 6b 75 3e 44 30 88 3f bf fc 85 3f
       1.3270333 0.23966828 1.063973 1.0467757
0000b0 33 bc af be 6a 7c b2 3e 89 d4 0a bf bc 36 c6 bd
       -0.34323272 0.34860545 -0.5423055 -0.096784085
0000c0 c9 4f 66 be a0 84 8d bc a8 ae 88 be 7e 58 70 be
       -0.22491373 -0.017275155 -0.26695752 -0.23471257
0000d0 6f f4 15 3e eb 23 00 be 60 f3 8a 3e 8c 0b ab 3d
       0.14644025 -0.12513702 0.27138805 0.08351812
0000e0 65 32 6d 3e 5a 03 67 be 46 fa fa bc 72 b3 bf 3e
       0.23163755 -0.22559872 -0.030636918 0.37441593
0000f0 6d 72 c4 3f fc d5 15 be 6b 99 07 3e 0d b5 96 3e
       1.534742 -0.1463241 0.13242118 0.29435006

l2.bias f4 [8]
000000 8f 57 ff 3e c3 c3 28 3f d4 5c 1b 3d 85 36 a8 3d
       0.4987149 0.6592371 0.037930325 0.08213524
000010 e3 79 25 3f 58 3d 14 bd 5e 23 d0 be 00 86 06 3e
       0.6463911 -0.036191314 -0.40651983 0.13137054

l3.weight f4 [7, 8]
000000 55 63 2c bf 0c 2a a3 bf 74 00 fa be a7 54 1e 3f
       -0.6733907 -1.2747207 -0.4882847 0.6184792
000010 87 83 62 3f 94 be cf bf 06 aa 55 bd 42 97 bb bf
       0.88481945 -1.6230035 -0.0521641 -1.4655535
000020 a6 55 01 3f 99 31 51 bf 56 87 f1 3e 38 33 3a bf
       0.50521314 -0.81716305 0.47173566 -0.72734404
000030 0e 99 b5 bf 7b a4 b9 bd cd fa b2 be 33 8a 93 3d
       -1.4187334 -0.09064575 -0.3495697 0.07204094
000040 54 e1 40 3f 7b c2 87 be ef f9 a9 bf 22 43 8b bf
       0.75343823 -0.26515564 -1.3279399 -1.0879862
000050 bc 0f 82 3d d1 34 e6 bf d3 51 82 be 0c 92 67 3f
       0.06350657 -1.7984868 -0.25453052 0.90457225
000060 8f 16 66 bf f2 c6 83 3f f1 c4 b5 bf 6e a7 8e 3e
       -0.8987817 1.0295088 -1.4200727 0.27862114
000070 d4 79 75 3e 40 33 8e bd 76 e8 40 3e 79 d1 42 bf
       0.23972255 -0.06943369 0.18838677 -0.7610088
000080 bc ae 3e 3e 4a 99 1e 3f 6f 7a b3 bf a1 e2 a0 bf
       0.18621343 0.6195265 -1.4021739 -1.2569162
000090 31 02 78 bf 53 f1 cb 3e c3 7d 35 3e 85 cb 8d 3d
       -0.96878344 0.39832553 0.17723756 0.06923584
0000a0 d2 e7 8e be 1a b9 a4 bf 4d 49 9b 3e 36 ea 05 3f
       -0.2791124 -1.2868989 0.30329362 0.523105
0000b0 30 b4 82 be 35 a4 b6 be 1c 39 60 be f4 88 88 3e
       -0.25528097 -0.35672155 -0.21896785 0.26666987
0000c0 34 52 18 be 97 d0 0d 3f c6 d2 88 3f ea 45 18 bf
       -0.14875108 0.5539641 1.0689323 -0.5948168
0000d0 ec a5 70 bf ff 06 2d 3f 3d b5 5b be c5 14 c0 bf
       -0.94003177 0.675888 -0.21455856 -1.5006338

l3.bias f4 [7]
000000 b3 b0 9d bd 2c be a2 be fe 2f 3f 3f 0b a5 2a 3e
       -0.07699718 -0.31785715 0.74682605 0.16664521
000010 67 54 77 bd d9 f4 81 bd 31 e5 3c be
       -0.060383227 -0.06345529 -0.18446805
